model_state.pt (torch, 85090 bytes, 39 tensors)

cat_embeddings.0.weight f4 [2, 32]
000000 54 16 35 bf 7c a8 b3 3f 93 b2 89 bf b8 73 2f bd
       -0.70737195 1.4035792 -1.0757622 -0.042834967
000010 72 61 4e be ce 84 0b c0 fe 32 38 bf 8b f6 74 3f
       -0.2015436 -2.1799808 -0.7195281 0.95688695
000020 91 60 81 3e ba 9e ba 3f 91 6f d1 bf c5 23 5f bf
       0.25268987 1.457969 -1.6362172 -0.87163955
000030 6b c7 45 3f ba 8c b1 be e0 85 ad 3f 1b 69 08 40
       0.7725741 -0.34677678 1.355648 2.1314151
000040 c6 5a 84 bd 9a 5e 9b bf 13 6a 95 bf 5b 9d ee 3e
       -0.06462626 -1.2138245 -1.1672996 0.46604428
000050 30 47 3c 3f d9 0f e6 3f cc e3 84 be 25 20 ee bc
       0.73546124 1.7973586 -0.25955045 -0.029068062
000060 75 67 81 bf d9 4e 1e bf ba ef 0a 3f e2 27 fd be
       -1.0109698 -0.6183906 0.54272044 -0.4944449
000070 59 9f af be a1 4c 20 bf d7 90 14 bf cf 4b 27 bf
       -0.3430126 -0.62616926 -0.5803351 -0.6535005
000080 00 4c e5 bf b7 e3 50 bf c9 b3 30 be 22 31 71 3f
       -1.7913818 -0.81597465 -0.17256083 0.94215596
000090 2e de b7 3f a6 a1 b9 bc 5d bf 49 be 21 4d ea 3e
       1.4364679 -0.022660088 -0.19701906 0.4576197
0000a0 b4 a3 68 3e 77 f9 15 3f 45 85 77 3f 8b 23 a5 be
       0.22718698 0.5858378 0.9668773 -0.3225368
0000b0 c9 61 95 be 15 bb b8 3e 66 22 58 bf 12 af f1 bf
       -0.29176167 0.36080232 -0.8442749 -1.8881552
0000c0 37 2f bd 3e e5 d9 ab be bc 6f 37 be 7f 74 d9 be
       0.36950085 -0.33564678 -0.17913717 -0.42471692
0000d0 11 f9 18 3f 71 33 f3 3c b4 06 d2 bf b7 27 98 bf
       0.59755045 0.029687615 -1.6408296 -1.188712
0000e0 e0 29 4a 3f 61 8e 20 bf 8b 7b 32 be 95 71 3c be
       0.78970146 -0.6271725 -0.1742994 -0.18402703
0000f0 ca 04 6a bf c3 51 47 3f 1f bf d9 3f 30 53 52 bf
       -0.9141356 0.77859133 1.701145 -0.82158184

cat_embeddings.1.weight f4 [3, 32]
000000 28 80 e3 be 22 15 1a 40 1e fe 0d 40 5f c1 9a 3f
       -0.44433713 2.4075398 2.218635 1.2090262
000010 20 7c 9b 3f 52 47 b5 be f9 23 f9 3d 1c 10 c7 3d
       1.2147255 -0.35405976 0.12165064 0.097198695
000020 2c 35 94 3e 47 f0 0a bf ee 88 0e be ff d2 92 3f
       0.28946817 -0.54272884 -0.13919422 1.1470641
000030 1a c7 a1 be be 7a 1a 3f 2d 22 e4 be 04 fd 1d 3f
       -0.31597215 0.6034354 -0.44557324 0.61714196
000040 e0 f9 d1 3e 80 7e 83 3f cc 7a c2 be ec bc 19 3f
       0.41010952 1.027298 -0.37984312 0.60053897
000050 5d d3 26 be 02 a2 af bf 50 a3 64 bf 1f ef 1c bf
       -0.16291566 -1.3721316 -0.89311695 -0.6130237
000060 d5 c8 bd 3e bb d9 6b bf f5 e9 de 3f 98 d7 bd bf
       0.37067285 -0.92129105 1.7415148 -1.4831419
000070 2d 3d b9 bf bf f8 1e 40 c5 21 7e be dd 06 b7 3f
       -1.4471794 2.4839323 -0.2481757 1.429897
000080 52 18 19 40 0b bc 38 bf dc aa 2d 3f dc d0 ac be
       2.3921094 -0.7216193 0.67838836 -0.33753097
000090 45 1a 42 bf d2 04 b7 bd bf 7f f3 be 07 83 ca 3f
       -0.75821334 -0.08936466 -0.475584 1.5821236
0000a0 19 23 3c 3f ae fb 8f bf 15 c0 20 bf d9 0d 07 be
       0.73491055 -1.1248682 -0.62793094 -0.13188876
0000b0 07 8b b7 be 2c 07 0c 3f 33 ec 3a 3d 43 79 d3 bf
       -0.35848257 0.54698443 0.045635413 -1.6521381
0000c0 2d 1e 4d bf 4f a2 5b 3e 87 ff b7 bf ec bc 53 bf
       -0.8012417 0.21448635 -1.4374856 -0.82710147
0000d0 59 64 83 bd 6b 8b 05 3f f8 90 99 3c ab 64 07 be
       -0.06415624 0.5216586 0.018745884 -0.13221996
0000e0 df 6a 71 bf 0c 22 78 3f e9 bd cc bf a1 bb e0 3f
       -0.943037 0.9692695 -1.5995456 1.755726
0000f0 b0 7f 51 3f 82 b9 97 bd 28 81 8b 3f 7a 36 c6 3f
       0.8183546 -0.0740843 1.089879 1.5485375
000100 31 46 85 3e 19 67 47 3f 9c 54 80 bf 14 92 9a be
       0.26030114 0.7789169 -1.0025821 -0.30189574
000110 2a de 72 3f 4b 6e 16 3f 46 14 a8 3e 0f 0f 2d 3f
       0.94870245 0.58762044 0.32827967 0.676011
000120 61 b8 d8 bf f5 1e 14 3a 6d 46 b9 3f 0d e5 0a 40
       -1.6931268 0.0005650365 1.4474617 2.1702302
000130 81 60 79 3f d2 3f a9 bf dd 3d 43 3e 2f 3c d4 be
       0.9741288 -1.3222601 0.19066568 -0.41452166
000140 0e 3f cc be a7 ad 30 3e 61 fd 51 bf ba ce b8 bf
       -0.39891857 0.17253743 -0.8202725 -1.4438088
000150 cd 2c 0f bf 80 d2 3f be 25 4e b5 3f 14 b9 0b c0
       -0.55927736 -0.18732643 1.4164473 -2.1831713
000160 2d d0 a2 bf d5 b2 3b bf 3e 78 bc bd c7 dc 9a be
       -1.271978 -0.7331975 -0.09202622 -0.30246565
000170 72 93 4b bf 5c 7e 37 3f 51 bb a8 3f 32 e4 8b be
       -0.7952186 0.71677184 1.3182164 -0.27322537

cat_embeddings.2.weight f4 [2, 32]
000000 44 ea e5 3d de b5 e5 be 0c bf 77 bf 83 34 6c 3f
       0.11226323 -0.44865316 -0.9677589 0.92267627
000010 2d 2a 12 40 87 8e b1 be f5 74 45 bf 05 7d d1 bf
       2.2838242 -0.34679052 -0.7713159 -1.6366278
000020 ee 8f 5e 3e 1d e0 da 3c c5 73 13 3f 61 8a 1d bf
       0.21734592 0.026718194 0.57598525 -0.61539274
000030 5a 49 23 3d 1a 23 a1 bf a9 b6 e7 3e 80 cc 5a bf
       0.039864875 -1.2588837 0.45256546 -0.8546829
000040 7d 4c 70 3e 36 9b 53 3f 7a 71 57 3f 0b b4 68 3e
       0.23466678 0.8265871 0.84157526 0.22724931
000050 42 02 3c 3e ad ea 49 bf 16 53 3a bf 9f b3 b8 be
       0.18360236 -0.7887371 -0.7278303 -0.3607454
000060 93 af b0 be 6e 7a cf 3e e7 e4 93 3e 45 62 0d bf
       -0.34508952 0.40523094 0.28885576 -0.5522807
000070 b4 c9 f0 3c 6f 56 45 be 5d bf 90 3f 72 be 60 be
       0.029393055 -0.19271253 1.13084 -0.21947649
000080 19 22 92 3f 70 61 81 bf 76 d3 70 3e 93 2d 88 bf
       1.1416656 -1.010786 0.23518166 -1.0638908
000090 f2 3a 44 bf 59 76 04 c0 52 51 9f be 1d 28 11 3c
       -0.76652443 -2.0697234 -0.3111673 0.008859661
0000a0 e0 cf 03 3f 5d 68 35 3f 53 67 90 3e 82 6d b7 be
       0.5148907 0.7086237 0.2820383 -0.35825735
0000b0 cc 91 b8 3e a1 17 cc 3f 0e 20 40 be 85 13 de 3f
       0.36048734 1.5944711 -0.18762228 1.7349707
0000c0 a9 c3 c6 3d f8 17 73 3e 8e c7 26 be 6d a4 1e 3f
       0.09705288 0.23739612 -0.16287062 0.61969644
0000d0 e2 51 09 be 98 34 9d bf 10 fa 58 3f ae d5 14 40
       -0.13410142 -1.2281675 0.84756565 2.325542
0000e0 13 a5 ae be 1d d7 c6 3e cd 63 b0 be 46 ad 9a 3e
       -0.34110317 0.38835993 -0.34451142 0.30210322
0000f0 ed 5b b0 3f 10 46 f0 bf 88 d1 dd be d4 4e 14 40
       1.3778054 -1.8771381 -0.43323922 2.3173113

num_linears.0.weight f4 [32, 1]
000000 82 ab 82 bf 15 54 8c bf 24 1a 38 be 45 f0 bf be
       -1.020859 -1.096316 -0.17978722 -0.37488
000010 ee 47 89 3f ed 17 ac be f3 93 dc 3e de 52 97 3e
       1.0725076 -0.33612004 0.43081626 0.2955541
000020 78 2b 30 3c 8c 1b 5a 3e d4 fd 82 be 12 ad 50 bf
       0.010752551 0.21299571 -0.2558428 -0.81514084
000030 24 7e 0b bd 83 31 11 3f 8b 6d 43 3f 84 c2 b5 be
       -0.034055844 0.56716174 0.76339024 -0.35499966
000040 55 c6 b2 be 7f 5e 5d bf d3 2d 56 3f 9f af 61 bf
       -0.3491694 -0.86472315 0.8366367 -0.881586
000050 aa 63 a6 be 6d f5 50 bd 60 4b 7a 3f e7 f9 54 3f
       -0.32497913 -0.051015306 0.97771263 0.8319382
000060 7d 63 8c 3e ec 78 65 3d 61 e9 32 3f 08 fd 6f 3e
       0.27419654 0.056023523 0.6988736 0.23436368
000070 89 8f 3b bf 87 11 53 3e e7 28 5a 3f 78 fc e3 be
       -0.7326589 0.20612155 0.8521866 -0.44528556

num_linears.0.bias f4 [32]
000000 ea c5 e8 3e 08 4b f1 3d 7f f2 5c be 85 a5 c9 3d
       0.45463496 0.11781889 -0.2157688 0.098460235
000010 a8 72 0f bf 49 0f 30 bd 83 fe 6d 3e 4f cc 38 bf
       -0.56034327 -0.042983327 0.2324162 -0.7218675
000020 78 ca 16 3f 21 cc 4a 3f b8 98 df 3e 4d df 37 bf
       0.5890269 0.79217726 0.43671203 -0.71825105
000030 7e 62 31 bf 0f ee 3f bf 04 0e 2d bf b7 34 af bd
       -0.6929091 -0.74972624 -0.6759951 -0.085549764
000040 1b cb 07 3f 62 08 98 be b3 88 5a be ba 7d 23 3f
       0.5304429 -0.29693896 -0.21341209 0.6386372
000050 64 c2 0c bf f8 3f 41 3f 52 d8 ff 3e e3 40 d3 be
       -0.54984117 0.75488234 0.49969727 -0.41260442
000060 96 51 c1 bd 79 1e 1f 3f f5 5c ff 3e 14 c0 04 be
       -0.094393894 0.6215587 0.49875608 -0.12963897
000070 61 04 2f bf 64 9a 30 be b3 e1 66 bf f1 9d 5b be
       -0.68366057 -0.17246395 -0.9018814 -0.21446969

num_linears.1.weight f4 [32, 1]
000000 d7 eb 62 3f 16 ff 1b be ef 58 f8 3b 19 6c fe be
       0.88641113 -0.15234026 0.007578961 -0.49691847
000010 3c d8 fc be 6b 97 e8 3e f7 88 59 be ea 1d 5b be
       -0.49383724 0.45428023 -0.21243654 -0.2139813
000020 44 2b 56 3f b0 8f 5a 3f d1 04 09 3c b6 44 63 bf
       0.8365977 0.853755 0.008362965 -0.8877672
000030 3e 7e 7b 3f 0a ed 44 bf df e4 68 bf 85 4d c8 3e
       0.98239505 -0.7692419 -0.9097423 0.39121643
000040 75 33 4f be 0a 4b cb 3e 64 01 55 bf cc 4f 67 be
       -0.20234473 0.39705688 -0.83205247 -0.22589034
000050 fd 70 7f be d7 eb d0 be 6c 92 5d bf 86 96 19 3f
       -0.24945445 -0.40804932 -0.8655155 0.59995306
000060 29 8e 3e 3f ef c2 10 bf 04 ec aa 3d c7 5e 6e 3f
       0.7443567 -0.56547445 0.08345798 0.9311337
000070 0a bd 42 3f 20 f3 63 3f bb 99 74 3f c1 03 4c bd
       0.760697 0.89042854 0.95547074 -0.049808268

num_linears.1.bias f4 [32]
000000 87 65 6c bf 2a 01 28 bf b3 b9 08 bf 99 b2 ba 3e
       -0.9234242 -0.65626776 -0.53408355 0.36464384
000010 a3 d3 78 bf ef f8 61 bf da d0 14 3e ba 2e 32 3f
       -0.9719793 -0.8827047 0.14532796 0.6960255
000020 b6 81 b2 3e e0 d9 da 3e c8 01 c7 3e eb 59 13 3f
       0.34864587 0.4274435 0.38868546 0.5755908
000030 77 c9 d4 3e bd be 04 bf 8a fb ac 3d 75 e6 66 3e
       0.41559955 -0.51853544 0.08446415 0.2254885
000040 8d a4 cd be 99 d3 09 3f a6 eb 28 3f d5 95 5c bf
       -0.40164605 0.538385 0.6598457 -0.86166126
000050 4e f3 9d bd 0a 23 1b 3d 48 e1 40 bf d3 1c d7 3d
       -0.07712422 0.037875213 -0.7534375 0.10503545
000060 b6 53 1d 3f 2c 1f 48 be e6 74 de bc 81 1b aa 3d
       0.6145586 -0.19543141 -0.02715535 0.08306027
000070 eb b3 05 bf 8b 74 08 3e 92 ee 81 be fa 2b 55 3f
       -0.5222766 0.13325708 -0.25377327 0.8327023

num_linears.2.weight f4 [32, 1]
000000 83 b0 45 bf a4 43 cc 3e 04 42 73 3f 62 e3 80 3f
       -0.7722246 0.39895356 0.95022607 1.0069392
000010 8d 4a fe 3e a6 b0 19 bf b6 a8 15 3f b4 b9 42 3f
       0.49666253 -0.6003517 0.5846056 0.7606461
000020 d4 23 89 3e 45 70 a8 3e 67 f8 84 3f 97 5e d0 3e
       0.26785147 0.32898155 1.0388306 0.40697166
000030 ed 8b 05 bf e2 9e 83 3d 36 01 36 bf 88 31 2a 3e
       -0.52166635 0.06426789 -0.710956 0.16620457
000040 05 3f 37 bf 98 ef 16 3f f9 7c 74 3e 13 89 98 3e
       -0.71580535 0.5895934 0.23875798 0.2979208
000050 4a 95 59 bd 61 d7 81 3f c3 94 9c be e2 05 f0 be
       -0.05312089 1.0143853 -0.30582246 -0.46879488
000060 d1 11 ad be 98 ea 13 bf b5 6c 68 3f 69 c6 aa 3d
       -0.33802655 -0.57779837 0.90790874 0.08338625
000070 e5 dd 6a bf d5 80 4c bf fb 9d 20 3f ba c1 82 bf
       -0.91744834 -0.7988408 0.6274106 -1.0215371

num_linears.2.bias f4 [32]
000000 9f f2 4f bf 70 c8 29 bf 2e 1f 01 3f f9 bc 7e 3f
       -0.81229585 -0.6632147 0.504382 0.995071
000010 b4 72 70 3f 17 9c 82 3e 93 49 c2 be d9 16 5c bf
       0.93925023 0.25509712 -0.37946758 -0.8597236
000020 53 b5 17 3f 6f b3 16 bf 38 60 2a bf 1e 51 42 bf
       0.59261054 -0.58867544 -0.6655307 -0.75905025
000030 90 a3 b2 be 06 dc 41 3f 16 d0 a4 bd d8 b0 75 3f
       -0.34890413 0.75726354 -0.08047502 0.9597297
000040 1c 96 0c 3f 2b a4 48 3f a9 dc 34 bf 19 cd 87 3e
       0.5491655 0.783755 -0.706492 0.26523665
000050 64 60 a8 3e 8d 04 16 3f 64 b1 0b bd 02 6e 7a bf
       0.3288604 0.58600694 -0.03410472 -0.9782411
000060 bc 0e fc 3e 22 ea ae 3e 31 15 0e bf 61 45 c9 3d
       0.4922999 0.34163004 -0.55501086 0.09827686
000070 64 90 4a 3f 9d a3 e1 be a0 d2 11 bf b4 ac 8f be
       0.7912657 -0.4407014 -0.56962013 -0.2806145

num_linears.3.weight f4 [32, 1]
000000 dd e2 73 3f 5b bb c9 bd 08 5d 0d bf ef 9a 2b 3f
       0.9526804 -0.09850188 -0.5522008 0.67033285
000010 9c fe 30 bf 95 f0 66 bf 06 db 11 bf 82 4a 57 bf
       -0.69138503 -0.9021085 -0.5697483 -0.84098065
000020 c6 c9 76 bf 97 67 90 3e 5b 24 c2 bd 90 48 6d bf
       -0.9640163 0.28204033 -0.094795905 -0.92688847
000030 b9 72 5c bf 89 10 49 bf d0 c6 34 bf bb 0b 27 bf
       -0.8611255 -0.78540856 -0.70615864 -0.65252274
000040 f6 09 16 3f ad 76 3e 3f 59 dd c4 3c 6c dd e2 be
       0.5860895 0.74399835 0.024031328 -0.44309556
000050 35 eb 29 bf 12 8f 70 bf 7c 69 02 bf 25 a5 32 3f
       -0.6637452 -0.9396831 -0.50942206 0.6978324
000060 6a 17 67 bf 43 3d 21 3f 91 8e 79 bf ef 0f f6 be
       -0.902701 0.629841 -0.97483164 -0.4805903
000070 75 21 1d 3f de 30 27 3e d8 b9 04 be 8f ed 5b be
       0.61379176 0.16327235 -0.12961519 -0.2147734

num_linears.3.bias f4 [32]
000000 42 23 39 3f cc 20 af bd 8a b8 c6 3e 32 cb 3a bc
       0.72319424 -0.085511774 0.38812667 -0.011400985
000010 43 51 1b bd 9c e1 37 3f eb 0e 07 3f 4a 5b fb be
       -0.037919294 0.7182863 0.5275714 -0.49093086
000020 cc e8 c4 bd ac d9 aa be 20 02 e3 be 75 fd 29 3f
       -0.09614715 -0.33369195 -0.4433756 0.6640237
000030 a2 e7 25 be d9 d1 16 3e c4 b0 f8 be e5 2a 58 be
       -0.16201642 0.14728488 -0.4857236 -0.21110113
000040 f2 cf f6 be 9e f6 f9 3e d8 c9 75 bf 14 c4 6a 3f
       -0.48205525 0.48820966 -0.96011114 0.9170544
000050 26 b7 76 bf 11 e3 c9 bd 39 31 75 be 08 95 20 3f
       -0.9637321 -0.098577626 -0.23944558 0.62727404
000060 cd aa 4e bf 4a bb 21 be 10 0d 23 bf 2d fd 0d 3f
       -0.8072937 -0.15794101 -0.63691807 0.5546444
000070 50 03 d0 3e 5a 8e 25 3f 07 ea c0 be 60 d5 af 3e
       0.40627527 0.64670336 -0.3767855 0.3434248

transformer.layers.0.self_attn.in_proj_weight f4 [96, 32]
000000 8f 76 b5 bd 50 4f 16 3e ee 2d ab bc d9 64 21 bd
       -0.08860504 0.14678693 -0.020895924 -0.039402816
000010 bd 46 08 be f0 25 0e bd 2b 50 af 3d 3e 97 12 3d
       -0.13308235 -0.03470415 0.08560213 0.035788767
000020 cf 5b 0a bd de 7a 15 be f9 09 2d be e1 66 45 3d
       -0.03377896 -0.14597651 -0.16898336 0.048193816
000030 9b 9d 7f 3e fb a5 29 be ff a3 49 3c 37 1e 81 3e
       0.24962465 -0.16567223 0.012307166 0.25218365
000040 e9 b9 33 be 96 b9 9a 3c a8 fd e3 bd 08 e4 28 be
       -0.17551388 0.018887322 -0.111323655 -0.16493237
000050 f0 79 59 be 63 46 82 3d b0 de 3c 3e c2 e1 da 3c
       -0.21237922 0.063610815 0.18444324 0.026718978
000060 15 7b fc 3d be ee 05 3e be ce 51 3e bd 99 c3 3d
       0.123281635 0.13079354 0.20489022 0.095508076
000070 cd 29 3b be ea e8 41 be 27 2f 96 3d 2c 3e 48 3d
       -0.18277664 -0.18936506 0.07333212 0.048887417
000080 8a c2 53 be 64 de 89 3d 19 24 45 3d af 4e 03 bd
       -0.2067968 0.06731871 0.04813013 -0.03205746
000090 53 a0 34 3e 84 d3 43 3d 9a 80 33 3e ca 91 8c 3c
       0.17639284 0.04780914 0.17529526 0.017159361
0000a0 bd 8b 3f 3e 17 07 71 3d a0 b4 fe 3d 32 75 bc 3c
       0.1870565 0.058844652 0.12436795 0.023005102
0000b0 30 57 64 bd 47 2f f8 bd 38 e0 ca 3c 7d 84 01 3e
       -0.05574721 -0.121183924 0.024765119 0.12648197
0000c0 42 fd 80 3d 3e d6 f3 3d bf 41 dd bd 38 2d f2 3d
       0.06298305 0.11906098 -0.10803556 0.11825031
0000d0 e2 a1 7d bb 73 67 26 3e e9 e3 4e 3e 8c 1a 9a 3d
       -0.0038701226 0.162504 0.20204128 0.07524595
0000e0 fe 35 1d 3c 14 13 05 bd 05 c4 b2 3d b2 c9 fa bd
       0.009595392 -0.032488897 0.08728794 -0.122455016
0000f0 bc 7c 1a be 18 36 34 be 2d af 44 3e 4e c2 1b bb
       -0.15086645 -0.1759876 0.1920745 -0.0023766938
000100 92 45 a3 bd 22 3c af 3c 8c 72 b0 bc 36 48 45 3e
       -0.07972254 0.021390978 -0.021538995 0.19265828
000110 1d 70 22 3e 56 be eb bd e2 29 2c 3d 68 95 6e bb
       0.1586308 -0.11510913 0.04203213 -0.003640497
000120 7b f9 03 be ad 67 1d be ff 73 73 be 08 f8 18 be
       -0.12888138 -0.1537158 -0.23774718 -0.14938366
000130 a2 7f 1f 3d 16 52 14 3e b7 20 ea 3d ad fa 35 3e
       0.03894008 0.14484438 0.11432021 0.17771406
000140 08 be c5 3d 0f 25 4a be e3 28 bc 3d 8b 54 47 be
       0.09655386 -0.19740699 0.09187486 -0.19465844
000150 ab 10 0b 3e 1c b0 e3 3d fe 53 e9 3d 72 f6 28 3e
       0.13580577 0.111175746 0.11392973 0.16500261
000160 b0 b2 99 bd ef 0c 0b 3e a5 db ac bc 83 05 83 3d
       -0.07504785 0.13579153 -0.021100828 0.06397536
000170 5e 88 24 3d 37 26 f3 3d 5b a7 10 be 82 e1 81 bd
       0.040169112 0.11872523 -0.14126341 -0.0634184
000180 47 77 09 3e c6 cc 45 3e fd 09 8a bd 10 60 32 be
       0.13424407 0.19316396 -0.06740186 -0.17419457
000190 6c b6 00 be 84 5e 8c 3e 0f e2 dd 3d 0c e0 0d bc
       -0.12569588 0.2741586 0.10834133 -0.008659374
0001a0 c9 8d 6e 3e c6 81 33 be 7a 1e 37 be da a3 cd 3d
       0.23296274 -0.17529973 -0.1788272 0.10041018
0001b0 0d bf 71 3d bf 30 01 3e a3 28 1b bd a7 19 81 bd
       0.05902009 0.12616251 -0.03788055 -0.06303721
0001c0 ee ef 23 bd 4f 84 25 be 94 60 51 3d 52 a3 16 3e
       -0.040023737 -0.16163753 0.051117495 0.1471074
0001d0 19 7d 2f 3d bd 8b 49 bd 5f aa 57 3d d1 42 32 3e
       0.04284391 -0.04920553 0.052652713 0.17408301
0001e0 78 92 0a be 82 5c 24 3e 7e 82 6d be c1 1c 47 be
       -0.13532436 0.16050914 -0.2319431 -0.19444562
0001f0 11 42 9a 3c ff d1 ce 3d 4f 7f 81 3c 94 f6 5f be
       0.018830331 0.10098647 0.015807776 -0.21871406
000200 fc 16 4c be f9 f7 6a 3e 37 4c 12 3e 0c 59 79 3d
       -0.19930643 0.22946157 0.14286886 0.060875937
000210 ec f1 c0 bc cf e2 9d 3c 1d cf b6 bd e9 b6 5a be
       -0.023552857 0.01927319 -0.089262225 -0.21358837
000220 08 b4 46 3d e7 ab 75 3e 19 e5 90 3d a5 8d 37 3e
       0.048511535 0.23991357 0.07074947 0.17925127
000230 02 b5 12 be 61 9d 25 bd 3b 44 8b 3d ff 0c 30 bd
       -0.14326862 -0.04043329 0.06800123 -0.042981144
000240 ad ff 39 3e 04 6d 3f be 27 93 fc bd 8b 99 9a bc
       0.18163939 -0.1869393 -0.123327546 -0.018872043
000250 28 83 65 bd ce 93 7b bb a9 47 4a be 3b 4e 2b 3d
       -0.056033283 -0.003838766 -0.19753899 0.041822653
000260 ea 29 a9 3c a8 93 3c 3e f4 a7 96 bd de c2 7b bc
       0.020649869 0.18415701 -0.07356253 -0.015366284
000270 90 a7 35 be 8b 8b 36 be 09 f2 29 3e 11 7d 83 3d
       -0.17739701 -0.17826669 0.16596235 0.06420339
000280 0a 54 15 3e 79 53 b0 3d 6a 54 66 be 9f 99 67 bd
       0.1458284 0.08609671 -0.22493139 -0.05654299
000290 30 73 3d be 88 7f af bd 53 31 50 be c0 85 de 3d
       -0.18500972 -0.085692465 -0.20331316 0.108653545
0002a0 67 49 03 be 61 0f 52 3e 1e b7 18 be d9 02 d1 bd
       -0.1282097 0.20513679 -0.14913604 -0.10205621
0002b0 50 b2 ae bb 00 43 41 be 6f c1 d7 3d 7e f6 2f bd
       -0.005331315 -0.18873215 0.105349414 -0.042959683
0002c0 4b 06 ae bd ae d8 66 be 51 7d 3d ba f8 02 fd 3c
       -0.08497294 -0.22543594 -0.00072284514 0.030885205
0002d0 b6 c1 72 3d 4a 95 06 be 10 a4 fe bc 60 b2 aa bd
       0.05926677 -0.13142887 -0.03108409 -0.083348036
0002e0 f2 eb d5 3d 71 02 3d 3e 54 2c 07 be 1b 49 12 3d
       0.104453936 0.18457963 -0.13200504 0.03571425
0002f0 0b 9f 1d be 8f e8 66 be 1f fe 0d be 24 06 d8 3d
       -0.15392701 -0.22549652 -0.13866471 0.10548046
000300 a4 a8 ad bd 2f b9 2f 3e df 15 31 be a1 5c b8 bc
       -0.08479431 0.17160486 -0.172935 -0.022505106
000310 f0 97 43 bc 8e bb 40 bd e6 50 8a 3d 55 83 28 bd
       -0.01193808 -0.047053866 0.067537114 -0.041140873
000320 d9 cd e1 bd 3a 18 81 3e 62 62 aa bd 9e b9 47 3d
       -0.110255904 0.25213796 -0.08319546 0.048761003
000330 5b 05 17 bd 3d 5a 21 3d ce 31 95 3d 0f f1 3f 3e
       -0.03687034 0.0393927 0.0728489 0.187443
000340 c0 24 21 3e 08 04 31 3e 59 69 77 bd 01 8d 02 bc
       0.15736675 0.17286694 -0.0604032 -0.007968188
000350 a9 da 2a be 60 f1 0d 3e 96 00 66 bd 23 46 49 3d
       -0.16684975 0.13861609 -0.056152903 0.049139153
000360 ac 51 db 3d 3f b8 51 be 4a 91 2b be 89 67 6f be
       0.10708937 -0.2048044 -0.16754642 -0.2337934
000370 a0 b9 df 3d 11 ea 30 3e 3c 44 92 bd 84 20 47 be
       0.10924077 0.17276789 -0.07141921 -0.19445997
000380 33 51 78 3e 23 a4 e4 bc eb 12 03 3d 9c 4d 99 bd
       0.24249725 -0.027910298 0.032000463 -0.07485506
000390 d8 14 af 3c 24 0c 15 3e 46 05 dd bd 1f a6 d9 3c
       0.021372244 0.14555413 -0.107920215 0.02656847
0003a0 49 62 27 3e 8d 56 92 3c e5 15 17 3d 2f 33 d0 3d
       0.16346087 0.017863536 0.036886115 0.101660125
0003b0 3f 95 eb 3c 27 6c 40 bd 02 0b 0a be 56 b4 2d 3d
       0.02875769 -0.046978142 -0.13480762 0.04240831
0003c0 04 27 21 3c 3d 3c 0b 3e 5c 53 81 bd 73 63 94 bc
       0.009835962 0.13597198 -0.06314728 -0.018113827
0003d0 40 3f b0 bd 98 bd 34 3e d6 ff 52 3e c8 05 99 bd
       -0.08605814 0.1765045 0.20605406 -0.07471806
0003e0 5b f6 2b be a8 3d 8d 3e b3 51 33 be 6e cb 80 be
       -0.16793196 0.27586102 -0.17511635 -0.25155205
0003f0 0f 2c 26 be 75 c0 36 3e c0 4e 51 be 33 19 2e 3e
       -0.16227745 0.17846854 -0.20440197 0.170018

transformer.layers.0.self_attn.in_proj_bias f4 [96]
000000 bc b8 6f bc 61 57 2b bc 44 9a f5 bc 69 b5 cd bc
       -0.014631446 -0.0104578445 -0.029980786 -0.025110917
000010 c8 f4 99 3c d8 18 8d bc 3f 00 f2 bc 35 ef aa 3c
       0.018793479 -0.01722376 -0.029541133 0.020866016
000020 83 2f f9 bc f6 b5 21 ba bc 8c cc 3c 3b 25 0d bc
       -0.030418163 -0.0006168777 0.024969451 -0.0086148335
000030 c7 5c 62 3d 41 7b 51 bc 7d 4c f3 3b f8 ea a5 3c
       0.05526426 -0.012785734 0.0074248896 0.020253643
000040 da 02 7e 3d cc 3b 45 bd d7 83 c0 3c e8 62 87 3c
       0.06201444 -0.04815273 0.023500366 0.016526654
000050 99 d8 01 3d 5f 32 78 3c 09 61 20 bd d3 28 da 3c
       0.031700704 0.015148728 -0.03915504 0.026630795
000060 27 32 00 bd 0f 4a 49 3a 7f 59 19 3d bc 5c 37 bc
       -0.03129783 0.0007678577 0.037438866 -0.011191543
000070 be 35 a8 3c 24 32 de 3c 8b 6e e0 3c 82 0d 21 bd
       0.020533439 0.027123518 0.027396461 -0.039319523
000080 44 e0 2e b9 36 57 cd 39 b2 06 2f 3a ae de 5c ba
       -0.00016677479 0.00039165624 0.0006676718 -0.0008425516
000090 16 ef 21 39 c0 68 12 3a 71 f3 93 b9 a2 d5 ec b8
       0.00015443223 0.0005585067 -0.00028219403 -0.00011293149
0000a0 40 3e 99 3a 29 dc d6 39 2b e0 d0 3a 86 fe a8 3a
       0.0011691526 0.00040981293 0.0015935948 0.0012893237
0000b0 92 7d 10 ba 70 9d 91 3a be 14 63 b9 5e c1 b8 ba
       -0.00055118755 0.0011109542 -0.00021656134 -0.0014095714
0000c0 ee ef e0 b9 70 8b 2b 3b 00 a1 55 37 d8 6e 43 ba
       -0.0004290337 0.002617564 1.2733275e-05 -0.00074551767
0000d0 69 ae 94 b9 bc 85 81 3a cc 11 e2 b9 a3 33 6e 39
       -0.00028358705 0.0009881775 -0.0004311934 0.00022716685
0000e0 f8 0f a9 ba b1 ec 2a ba 22 c3 36 b9 b6 eb 1e ba
       -0.0012898436 -0.0006520255 -0.00017429565 -0.00060623453
0000f0 c8 1e 70 b8 94 19 74 3a 2f e9 46 3a 95 4f 2b 3a
       -5.7249126e-05 0.0009311673 0.00075878476 0.0006534991
000100 d2 7b 6b 3c 22 7a 5d 3c 1a 8f d5 ba b7 61 b9 3c
       0.014372783 0.013517888 -0.0016293258 0.022629602
000110 c8 8d 39 3b 7d 4e b5 bc f9 26 62 3c 79 ff 33 bc
       0.0028313268 -0.022132153 0.013803237 -0.010986202
000120 fa ed c7 bc f0 9d df 3b 5a fb 9e bc e4 61 34 3c
       -0.024405468 0.0068242475 -0.019406963 0.011009667
000130 e0 e6 8a 3c c2 9b 19 3b 60 90 df 3a e1 14 18 bd
       0.016955793 0.0023438786 0.0017056577 -0.037129287
000140 fd 90 58 3c a3 19 fe bb eb 6c 74 bb cb 4c aa bb
       0.013218162 -0.007754521 -0.0037296365 -0.0051971427
000150 f1 9d 0b bc 78 5b 96 3c 18 1b 1b bc 81 51 94 bc
       -0.008521543 0.018354163 -0.009466909 -0.01810527
000160 76 de 02 bc cc 49 82 3c e4 d9 36 3c 44 c7 c2 bc
       -0.007987609 0.01590433 0.011160348 -0.023776658
000170 e5 0d 92 3c be 29 97 3c bd 1e 4d 3c d7 fa 8b 3c
       0.017828891 0.018452521 0.012519536 0.017087383

transformer.layers.0.self_attn.out_proj.weight f4 [32, 32]
000000 39 d4 a4 bd 38 42 71 3d 2b 1f 56 bd 81 03 32 3e
       -0.08048291 0.05890104 -0.052275818 0.17384149
000010 ab 65 de 3d 91 f4 0a bd e3 cd 8e bd 58 d0 15 3e
       0.108592354 -0.033924643 -0.069728635 0.14630258
000020 87 93 84 3d b3 80 8c bd 25 29 77 bd 73 82 1c 3e
       0.06473451 -0.06860485 -0.060341973 0.15284137
000030 ce 0e 24 3e bc f9 4d 3d 76 ce 33 be 89 d7 43 be
       0.16021273 0.050286993 -0.17559227 -0.19125189
000040 3d 86 7f 3d 74 76 db bd 56 fe e5 3d f0 d5 97 bd
       0.06238388 -0.107159525 0.11230151 -0.07413852
000050 2e 3c 7e bc 1b d5 2d be 6e 96 d1 bd 2b 65 6e be
       -0.015517278 -0.16975825 -0.1023377 -0.2328078
000060 71 36 15 3e d6 8f d9 bc cc 58 f9 bd 65 10 81 3d
       0.14571549 -0.026557844 -0.1217514 0.06301955
000070 e1 8b b6 bb da a7 25 3e 19 37 81 3d 1e 4b ac bd
       -0.005570874 0.16177312 0.06309337 -0.08412765
000080 2a 71 0f be 68 14 45 be e8 a1 49 bd 40 e7 64 3d
       -0.14008012 -0.19246066 -0.04922667 0.0558846
000090 37 d9 8d 3d bc 73 9a 3d 24 fa 8c bb 5d f1 19 be
       0.06926196 0.07541606 -0.00430228 -0.15033479
0000a0 40 6c 07 be 50 b5 dd 3d 8d 60 06 3e e3 20 2b bd
       -0.13224888 0.10825598 0.13122769 -0.04177941
0000b0 bf 4a 2b be a2 34 09 be 17 66 07 3d 6a 5c 89 3d
       -0.16727732 -0.13398984 0.033056345 0.0670708
0000c0 e0 48 79 3d a5 fc fa 3a c0 a4 0a be 48 e4 98 bd
       0.060860515 0.001914878 -0.1353941 -0.07465416
0000d0 63 f2 97 bd c5 eb 2f bd a2 5b 0c be b4 b1 ee bd
       -0.074192785 -0.042949457 -0.1370683 -0.11654988
0000e0 8c 96 91 bc 77 63 16 3e 1f 5e e2 bd c2 a9 42 be
       -0.017771982 0.1468638 -0.110531084 -0.1901007
0000f0 d7 45 7a 3d 31 54 fd 38 44 79 2a 3e b6 e5 e8 3c
       0.06110176 0.00012079662 0.16647822 0.028429847
000100 56 3b 1e be 96 45 19 be 80 46 3c 3d df d6 37 bd
       -0.15452322 -0.14967951 0.04596567 -0.04488265
000110 e2 51 a3 3d 9c 0d 10 3d 22 ba 85 3d e8 5c a2 bd
       0.07974602 0.03516923 0.06529643 -0.07927877
000120 c8 8c a5 3c 4b 37 49 be ab db 36 3d c4 5b c6 bd
       0.020208731 -0.19649999 0.044643085 -0.09685472
000130 a4 e7 cd bd 99 4d 50 3d be ac 11 3e fc 89 a5 3d
       -0.100539476 0.050855253 0.14226052 0.08082959
000140 37 54 09 3e d2 2c 69 bc be 8a 60 3c 7e 8f f7 bb
       0.13411032 -0.014231877 0.013704954 -0.0075549474
000150 a2 f4 09 3e 97 0a c2 bc 51 6d 1c 3e 73 21 bb bc
       0.13472226 -0.02368669 0.15276076 -0.022843098
000160 7e 34 0a be e2 b4 db bd c6 aa c0 bd 06 d9 d9 3c
       -0.13496587 -0.1072786 -0.094075724 0.026592743
000170 fe 18 c1 bb b9 a6 2b 3c f0 31 fb bd af 97 63 bd
       -0.005892872 0.0104767615 -0.12265384 -0.05556458
000180 52 89 ad ba 6a ef 8e 3d 71 25 e0 3d e1 bf 22 3e
       -0.0013239777 0.06979258 0.109446414 0.15893508
000190 52 a1 c5 bd 74 57 47 3d 1b ce 42 be 77 95 0b be
       -0.0964991 0.048667386 -0.19023935 -0.13631235
0001a0 af 98 b9 3d 78 fb 12 3e ce 07 91 3d f4 bc 09 3e
       0.09062325 0.1435374 0.07081567 0.13450986
0001b0 47 11 3c 3d a1 0b c5 bc 8a 3c b8 bc b1 53 15 3e
       0.045914914 -0.024053397 -0.022489805 0.14582707
0001c0 a8 5e 1e 3e 59 b6 ce bb 1e 3a e9 3d f0 1a 99 bd
       0.15465796 -0.0063083586 0.11388038 -0.07475841
0001d0 1c 45 98 3d 6d ec 33 bd 3b 7a 86 bc c1 d8 bd 3d
       0.074350566 -0.043926645 -0.016415706 0.09269858
0001e0 42 bf 30 3e fc 3f be bd 5b 66 03 3e 30 aa 55 bd
       0.17260459 -0.09289548 0.12832014 -0.052164257
0001f0 13 34 78 bd 78 18 f5 bd ee ea 3d 3b 13 19 ef bd
       -0.060596537 -0.11967558 0.002897914 -0.116747044
000200 f0 20 9b 3c 62 e5 96 3d d6 5f 77 3c c6 9e 2f 3d
       0.018936604 0.0736797 0.015098533 0.042876028
000210 16 2d 89 bd 8a 5c 15 be 1f 5c 3d 3d d9 d9 f8 bd
       -0.066980526 -0.14586082 0.04623043 -0.12150926
000220 df 0b 91 3d 18 ea 78 3d e9 4a 30 3e 0b 99 0c 3e
       0.07082342 0.060770124 0.17216076 0.13730256
000230 89 a3 1e 3e d8 4a 11 3d 02 6e a7 3d 54 f4 78 3d
       0.15492071 0.035471767 0.08175279 0.060779884
000240 16 d1 43 bd c1 cb 2d 3d 99 df 36 3c eb bd 39 bc
       -0.04780682 0.042430643 0.011161708 -0.011336784
000250 c4 15 d7 3d 6a 0e 01 be ca d9 fc 3d cc 68 51 3e
       0.10502198 -0.12603155 0.123462275 0.20450133
000260 2e 2e 85 3c fb 38 0f be 81 83 f7 bd 74 4d 9b bd
       0.016257372 -0.1398658 -0.12085629 -0.075831324
000270 3b 0c 74 bd 1c f7 c2 bc 4c b6 87 3d 68 e1 1b 3e
       -0.059581976 -0.023799472 0.06626567 0.15222704
000280 49 6a 95 bd 4a d0 8b bd 30 de 94 bd 3d 5a b5 3c
       -0.07295663 -0.06826837 -0.072689414 0.022137756
000290 e6 5f 15 3e 9c 4b 11 be 7f ea fd bd e9 3e 15 3b
       0.14587364 -0.14188999 -0.12398242 0.0022773093
0002a0 01 f0 f9 3d 86 68 75 bd 3e eb cb bd 92 97 5c 3e
       0.1220398 -0.059914134 -0.09956978 0.21542194
0002b0 07 35 f5 3d 7f c9 fd bd b3 ba 81 3c 42 71 af bd
       0.11973005 -0.12391948 0.015836095 -0.08566524
0002c0 dc 55 12 3e 4f 99 a8 3d 96 d5 85 bd 46 e1 37 bd
       0.14290565 0.08232366 -0.06534879 -0.044892572
0002d0 98 ff 07 be 76 52 df bc 23 b6 51 3c c2 09 65 be
       -0.13281095 -0.027261 0.012799772 -0.22367004
0002e0 b9 a6 60 3d 36 1c 38 3d 47 62 fd 3c 9f 61 fd 3d
       0.0548465 0.04494878 0.030930651 0.12372135
0002f0 be 27 24 be cb 94 1a be ca e6 9b bd 8f 00 59 3d
       -0.16030785 -0.15095823 -0.07612379 0.05297905
000300 b8 4e 4a 3d e9 ae 77 bd ad 08 27 be 1b a1 0c be
       0.04939148 -0.06046954 -0.16311903 -0.13733332
000310 a9 d4 c6 bd 9b bd 3d 3e bf 79 94 3c 2e 59 f1 3c
       -0.097085305 0.1852936 0.01812446 0.02946147
000320 52 ec 1c 3e 6b ed 03 be 58 b1 2f bd 38 69 ca bd
       0.15324524 -0.12883537 -0.042893738 -0.0988335
000330 a3 2e e0 bc 35 e6 ae bc db a5 01 bc 07 6a 11 3d
       -0.027365988 -0.021350006 -0.007913078 0.035501506
000340 4e 43 42 bd 7b 03 e1 bb 0d 4e 1b be e7 31 7f 3d
       -0.047427468 -0.00686687 -0.15166493 0.06230345
000350 77 a7 bb 3d bb 19 e2 3d 71 49 bf bd b0 6a 19 3d
       0.09162801 0.11040064 -0.0934018 0.03745526
000360 38 34 82 bd 70 b7 76 bd 88 2d ed bd 61 9b 79 bd
       -0.06357616 -0.060233533 -0.1158095 -0.060939196
000370 1d 3e f2 bc a1 04 fc 3c d5 c3 26 be 44 df e2 3c
       -0.029570634 0.030763926 -0.16285641 0.027694352
000380 5d 6b e9 bd ac 90 9d 3d 94 2b 98 3b d3 49 3e 3d
       -0.11397431 0.076936096 0.004643867 0.046457123
000390 61 8a 00 3c f9 9b 13 be 5f 1d 03 bd 47 5c e4 bc
       0.007845492 -0.14414968 -0.032010432 -0.027876033
0003a0 d9 cb a8 3c b3 b8 35 bd 06 3c 09 3d c3 5c d9 bd
       0.020605015 -0.044365596 0.03350451 -0.10613396
0003b0 e4 31 e3 3d ba 78 2d 3d a7 5b 12 3e da 3c ad bd
       0.110935 0.042351462 0.14292775 -0.08458872
0003c0 b8 97 2a be bf 61 89 bc e8 cf 05 3e a2 86 e9 bc
       -0.16659439 -0.016770242 0.13067591 -0.02850658
0003d0 d3 d7 f9 3d a6 d5 ae 3c 4d fb 3c be 54 4f 2b bc
       0.12199368 0.02134211 -0.18455239 -0.010455925
0003e0 aa 77 aa bd ed 8c ab 3d 66 87 31 3e da 23 1f 3e
       -0.08323605 0.08376489 0.17336807 0.1554102
0003f0 a9 1e 34 be 12 de 13 3e ff a6 74 bd 2b df 78 3c
       -0.17589821 0.14440182 -0.059729572 0.015189926

transformer.layers.0.self_attn.out_proj.bias f4 [32]
000000 94 cf 15 3b 35 a5 f2 3b 00 11 bf b6 ad 38 95 3c
       0.0022859322 0.007404948 -5.6942226e-06 0.018215502
000010 c4 9c 80 bc 23 b0 a8 3a e9 cb 0a bc 74 57 15 bb
       -0.015699752 0.0012869876 -0.0084714675 -0.0022787722
000020 93 70 fc bc 35 f4 c0 bc b4 83 36 3b 00 c5 fe 3c
       -0.030815398 -0.023553947 0.0027849497 0.031099796
000030 20 33 c3 bc 49 cb 3b bc 55 b6 31 3c 5e 9f 8d bc
       -0.02382809 -0.011462041 0.010846694 -0.017287906
000040 f0 79 07 3c 36 38 98 3c df 52 43 bc 60 44 1b 37
       0.008268818 0.018581491 -0.0119216135 9.25464e-06
000050 c6 f3 d9 3c 05 9a a4 3b 1f 6a 94 bc e0 64 88 bc
       0.026605498 0.0050232434 -0.018117009 -0.016649663
000060 78 02 1e bd 7d 9c b1 bc ac 98 4b 3b 94 cc 7f 3b
       -0.038576573 -0.021681065 0.0031066341 0.003903185
000070 44 16 08 3d 2a 69 b4 ba 8d 50 ba 3c 76 7c ce 3b
       0.03322436 -0.0013764251 0.022743488 0.006301458

transformer.layers.0.linear1.weight f4 [64, 32]
000000 9a ae aa 3c 38 e9 0c 3e 79 3b d5 bd 53 54 e6 3c
       0.02083521 0.13760841 -0.10411734 0.02811638
000010 13 23 db bc 8c 8f 47 3e 80 c0 7f 3d 57 a2 eb 3d
       -0.026750123 0.19488353 0.06243944 0.11505573
000020 a7 4c 03 3e fa e4 a7 bd 82 64 2d 3d 43 b7 13 be
       0.1282221 -0.08197971 0.04233218 -0.14425378
000030 4b 9c 8c bd db 5a 1b bd f3 54 fc bd 28 44 b1 bc
       -0.06865748 -0.037928443 -0.1232089 -0.021638945
000040 c2 0c 59 bd 49 5f 90 bc 48 a6 fc 3c 99 4f 14 3e
       -0.052990682 -0.01762356 0.030841008 0.14483489
000050 49 73 2a 3e 4f 5c 26 be d1 cf af bd 0a 4c d0 bd
       0.1664554 -0.1624615 -0.0858456 -0.10170753
000060 84 b3 93 bd 59 8f b8 3c d9 0d f0 3c d0 44 c4 3d
       -0.07211974 0.022529291 0.029303478 0.095834374
000070 39 32 48 3e 0c 03 1e 3e 94 51 64 bd 77 1b fa 3d
       0.19550408 0.1543085 -0.05574186 0.1221227
000080 d2 f8 99 bd db 03 c9 3d a1 b3 86 bc 75 f2 31 be
       -0.07518162 0.098151885 -0.016443076 -0.17377646
000090 4a 5a dc bd e8 9c e3 3c 04 0e 96 3d 65 6b 43 3b
       -0.10759409 0.02778478 0.07326892 0.002981865
0000a0 dc 21 3e bd c2 9f 35 be 0f 75 15 bd 4c 04 42 3e
       -0.04641901 -0.17736724 -0.03648859 0.18946952
0000b0 dc 7f f0 bd 12 1d ce bc fb 4c bd 3d da 04 7a bd
       -0.11743137 -0.025160346 0.092431985 -0.061039783
0000c0 2e 84 b4 bd 60 27 c3 3d 36 e1 38 bd b8 b9 1b 3e
       -0.08814274 0.095289946 -0.045136653 0.15207565
0000d0 0b 62 0f 3e 12 92 f5 3d bf 93 84 3c 11 55 40 3e
       0.14002244 0.11990751 0.016183732 0.1878245
0000e0 b9 e7 71 3d 52 4e 42 3d 4f 98 59 3c d8 80 05 be
       0.05905888 0.047437973 0.013280942 -0.13037431
0000f0 51 67 ca 3d d0 29 0e 3e 5e 2d ce 3d 9c b8 bc bd
       0.09882987 0.13883138 0.10067247 -0.09214899
000100 c8 83 16 be 91 7e 3e be a5 36 ba 3d bb 61 15 be
       -0.14698708 -0.18602969 0.09092454 -0.14588062
000110 a5 0a 54 bd 68 3b ee 3d 5d d3 8b bd a2 bb 39 3e
       -0.051767964 0.116324246 -0.06827424 0.18137982
000120 30 25 e0 bd f8 21 3d 3d a8 a7 cf 3d 9f df 4c 3e
       -0.10944593 0.046174973 0.101394 0.2000718
000130 26 79 a0 3d ab f7 21 3b 44 fd 01 3e 50 e1 47 bd
       0.07835607 0.0024714272 0.1269427 -0.04879886
000140 b0 79 61 bd a7 2a 17 3e 5c 23 1d 3e d2 1e 3b 3e
       -0.05504769 0.14762364 0.1534552 0.18273476
000150 17 e7 46 be f3 d4 1d 3e 21 4f 94 bd df 35 c4 3d
       -0.19424091 0.15413265 -0.07241655 0.095805876
000160 ec 80 cb 3d be ee 5b 3d aa 12 39 bd 26 5d 96 3d
       0.09936699 0.05369448 -0.045183815 0.073419854
000170 b5 22 15 bd 7b 09 54 3d 2f 14 23 be e9 23 a2 3d
       -0.036410052 0.051766854 -0.15925668 0.079170056
000180 e6 45 d5 3d ab a8 d7 bd 6a 96 68 3d d7 39 16 3e
       0.10413723 -0.10530218 0.05678407 0.14670502
000190 3c c7 41 3e b6 81 e8 3d aa f2 0d 3e 1d d5 30 be
       0.18923658 0.113528654 0.138621 -0.17268796
0001a0 e7 fc 06 3e ad c2 98 bd 49 41 0e be a8 31 81 bd
       0.13182412 -0.074590065 -0.13892092 -0.06308299
0001b0 f1 92 be 3d e5 db ba bd c9 17 03 3d 41 12 4d 3d
       0.093053706 -0.09123973 0.032005105 0.050066236
0001c0 0e 3e 13 bc eb 7a 10 3e 6a 6e cf bc 3f 68 34 3e
       -0.008986963 0.1410939 -0.025321204 0.17617892
0001d0 a9 02 33 3e d2 fb 04 bd 4d 85 8c bd da 68 86 bd
       0.17481484 -0.032466717 -0.068613626 -0.065629676
0001e0 63 66 03 3d 2f 26 ee 3c 7e ce 67 bd 35 fc 22 3e
       0.032080065 0.029070942 -0.05659341 0.15916522
0001f0 15 d6 be 3d 1a f4 e1 bd 3e 67 b4 bb 11 2f f0 bd
       0.09318177 -0.11032887 -0.0055054715 -0.11727727
000200 ed 1d f2 bd e0 d0 45 3d 7e 4e 8c bd ea 30 4b 3d
       -0.11822114 0.0482949 -0.06850909 0.049607195
000210 6a 0d 1a 3e 0c 97 15 3d 05 77 25 be 99 0e 8e 3d
       0.1504418 0.036521003 -0.16158684 0.06936378
000220 5e a3 2c bd ae 56 18 3e 70 5b 13 be 71 7c 13 3e
       -0.042147987 0.14876816 -0.1439035 0.1440294
000230 b6 08 26 bc 13 96 b1 3d 80 40 bd 39 95 7e 03 be
       -0.010133913 0.086712025 0.00036096945 -0.12841256
000240 b1 6e 0f 3e cc de 89 3d 17 b1 f2 bb d7 40 06 bc
       0.14007069 0.06731948 -0.0074063647 -0.00819417
000250 61 c8 df bd f0 c6 79 3c 70 56 40 be 8d 0d a3 3d
       -0.10926891 0.015245184 -0.18782973 0.07961569
000260 c7 4b 0a be a9 ed ed 3d 12 2e 28 b9 d2 f1 12 be
       -0.1350547 0.11617596 -0.00016038891 -0.1435006
000270 9a 7c e4 3d 93 9d 08 3e 60 cc b1 bd a6 3e ef bd
       0.11156578 0.1334136 -0.086815596 -0.11681871
000280 89 e1 bd bb 33 6f c3 bc 76 84 03 3e 09 02 b2 bd
       -0.005794708 -0.023856735 0.12843499 -0.086917944
000290 8b 6d 5c 3e dd 6c d6 3c 00 90 1f bd b8 a6 0c 3e
       0.21526162 0.026174957 -0.03895569 0.13735473
0002a0 9a 50 3d 3e 2b 0d 4c 3d f6 3f 0f 3e ed 3f 9d bb
       0.18487778 0.049817245 0.13989243 -0.0047988803
0002b0 8c e2 30 be 7f 1e ee 3d 4f f9 b0 bd af 74 97 bc
       -0.17273921 0.116269104 -0.08641302 -0.018488256
0002c0 ad ce a4 3c 55 90 95 bc 74 65 66 3d fa 5b f9 bd
       0.020118082 -0.0182573 0.056249097 -0.12175746
0002d0 45 dc 90 3d 46 46 d4 3d 46 29 89 bc 23 04 38 3e
       0.07073263 0.10364966 -0.016743314 0.17970328
0002e0 34 a3 5b 3e 98 a9 da bd 78 fd 7c bb 1d a3 cb 3d
       0.21448976 -0.10676879 -0.0038603228 0.09943221
0002f0 b1 b7 e2 bc 70 a6 27 bd a5 8c 62 3d 90 cc 82 be
       -0.027675482 -0.04093021 0.05530991 -0.25546694
000300 93 14 cb bd fd 68 0f 3e fb e6 76 3c 3a 92 50 3c
       -0.099160336 0.14004894 0.0150697185 0.012730176
000310 e6 ab 23 3b 9d b2 aa bd 48 9b 41 3e 55 fe 54 be
       0.0024974286 -0.08334849 0.18906891 -0.20800145
000320 ab 40 a8 bc 1d 24 22 3e 53 53 4c 3e ce f3 0c 3e
       -0.020538649 0.15834089 0.1995366 0.13764879
000330 a4 01 ac bd ac 00 2c bd f7 ac cd 3d 61 21 12 3e
       -0.083987504 -0.04199283 0.10042756 0.14270546
000340 67 64 25 3d bf fe 40 3e 55 08 6e bd 20 18 05 3e
       0.040378954 0.18847178 -0.058113415 0.12997484
000350 0c 37 ff bd 33 d4 96 bd 26 81 c9 bd 17 22 91 bd
       -0.12461671 -0.073646925 -0.09839086 -0.0708658
000360 35 49 2d bb 7a 9b 47 3d ee 69 09 3e 26 f2 bf 3d
       -0.002644134 0.04873226 0.13419315 0.09372358
000370 d5 75 11 be dc 2e b3 3d 54 8b 83 bc 03 82 6d 3d
       -0.14205106 0.08749172 -0.016057648 0.057985317
000380 23 50 fa bd 37 5b be bd 8a f8 79 3d e1 2b 0f 3c
       -0.12222316 -0.092947416 0.06102804 0.008738489
000390 fa 47 6a bd c1 81 51 3d 51 f3 8a 3d 9b 6e 05 3e
       -0.05719755 0.051149134 0.0678469 0.13030474
0003a0 9e 5c 37 3e 02 a5 32 be c9 0e f9 bc 42 d7 da bd
       0.17906424 -0.17445758 -0.030402558 -0.106855884
0003b0 1a 7a 1d bd 8a df 87 bd 13 68 f9 3d 25 78 ef 3d
       -0.038446523 -0.066344336 0.12178054 0.116928376
0003c0 d8 34 2d be e8 89 22 3e f5 bf d3 3d aa 1b 1e 3e
       -0.1691469 0.1587292 0.10339347 0.1544024
0003d0 c7 4d 0e bd 4b 36 3a be 93 dd 16 be 48 ed 36 be
       -0.034742143 -0.18184774 -0.14732961 -0.17863953
0003e0 3f c3 2f bd 0a 21 b3 3d 67 24 01 3e 0c a5 a7 bd
       -0.04291081 0.08746536 0.12611543 -0.08185777
0003f0 b6 20 fa 3d 8d 76 ce bc e4 7e 10 be 39 a0 f2 3d
       0.1221327 -0.025203014 -0.14110905 0.11846966

transformer.layers.0.linear1.bias f4 [64]
000000 16 bc 57 bd 4e 35 13 be 32 1d da bc c0 d7 99 3d
       -0.052669607 -0.14375803 -0.02662525 0.07511854
000010 59 8a 4d bd 96 56 f1 3d 7f 51 d7 bc ed d0 82 bc
       -0.050180767 0.11784093 -0.026283978 -0.015968764
000020 e1 32 0d 3e 2f 48 03 3e cd 30 51 3e 84 14 28 3e
       0.1378894 0.12820505 0.20428772 0.16414076
000030 5e 78 1b be 4e cc 92 bc 1a 9b 44 be 58 6d 0d 3e
       -0.15182635 -0.017919686 -0.19199792 0.13811243
000040 d8 27 84 3d 03 b7 c9 bd 88 91 14 3e 9c 6c 9c 3c
       0.06452912 -0.0984936 0.14508641 0.019094758
000050 b4 fa 13 3c 6f 5a 0a bb d2 89 ec bc c8 4b c8 bc
       0.00903194 -0.0021111032 -0.028874312 -0.024450198
000060 68 b1 c0 3d cc 90 c7 3c d6 92 d8 3d d2 0c 4d bd
       0.094088376 0.024361037 0.10574882 -0.050061055
000070 e4 9a 02 bd 5b 7b e6 bd c2 b5 a9 bd aa d9 e2 bd
       -0.031885996 -0.11253997 -0.08286621 -0.110766724
000080 8d 2c 5e bc 87 74 02 3d 2f 01 18 3e 9e ec 19 be
       -0.013560426 0.03184941 0.14844202 -0.15031669
000090 85 79 0a be 7b bf 00 3d 81 3b 24 be b4 a3 27 be
       -0.13522919 0.03143261 -0.16038324 -0.16371042
0000a0 52 64 81 bc cb 22 9b bd d8 b7 30 be 9c 7e a5 bd
       -0.015794907 -0.075749956 -0.17257631 -0.080807894
0000b0 8c 97 8f 3c c9 0c 3b be db 6c ff 3d 4b bf 30 3e
       0.017528318 -0.18266596 0.124719344 0.17260472
0000c0 af eb e4 3d f9 5b 02 3e 74 65 79 3d 17 31 b5 bd
       0.111777656 0.12730397 0.06088777 -0.08847254
0000d0 06 0e 20 3e 45 3d cc bd 7e 5d 8d bd 09 6b a4 3d
       0.1563035 -0.09972624 -0.06902598 0.08028228
0000e0 22 3b ed 3d a4 d9 2e 3e 71 6d bf 3d 59 4a 08 be
       0.11583544 0.17075211 0.09347046 -0.13309611
0000f0 a6 ff 89 3d 7f 17 a1 b9 94 b3 1b 3e 37 2a 8b 3d
       0.06738214 -0.0003072582 0.15205222 0.06795161

transformer.layers.0.linear2.weight f4 [32, 64]
000000 56 c8 17 3e 1f 2e a3 bd d6 19 c4 3c fb 15 8f 3d
       0.14822516 -0.07967781 0.0239381 0.06986614
000010 2d 65 44 bd 96 a6 83 3d e6 22 c2 bd b7 59 f3 bd
       -0.04794805 0.06428258 -0.094793126 -0.11882346
000020 79 82 a6 3b 69 6f 20 3d ca d7 67 3c 5f 45 e9 3b
       0.0050814715 0.03916875 0.014150569 0.0071188654
000030 88 b0 e6 3d e0 be 0e 3e 76 54 3d bd 3f 03 a8 3d
       0.112641394 0.1394 -0.046223126 0.08203744
000040 0b 43 af bc 15 ac 9f 3d e6 fb ec bd be 2c 12 3d
       -0.021394273 0.07796494 -0.11571483 0.0356872
000050 3f bc 87 bd ec ba 88 bd 82 e3 d1 bb 66 28 98 3d
       -0.06627702 -0.066762775 -0.006405295 0.074295804
000060 96 03 03 3e 60 66 d6 3b 9d d4 4e 3c e4 45 2b 3d
       0.12794337 0.006542966 0.012623933 0.0418147
000070 d8 2a 4e bd f5 b4 4d 3d ed 83 31 bd 50 b9 c9 bd
       -0.050333828 0.050221402 -0.043338705 -0.09849799
000080 5e ef 4c bd d9 38 5c bd 51 20 e1 3d e3 ab 9d bd
       -0.050032966 -0.05376515 0.10992492 -0.076988004
000090 2c b5 b4 bd fe 42 c8 3d 8e 34 21 bd 4c f2 72 bd
       -0.08823618 0.09778403 -0.03935676 -0.059313104
0000a0 fd 44 67 bd b7 05 8f 3d 02 e0 9d bd 8e b7 b1 bc
       -0.056462277 0.06983512 -0.07708742 -0.021693971
0000b0 ee ab c2 bc fd 21 c6 bc 59 36 9b bd 0f c3 84 3c
       -0.023763623 -0.024186129 -0.07578725 0.016206292
0000c0 6f 16 56 bb 29 4f ef bd 32 97 ea bd 85 ae 20 3c
       -0.003266718 -0.116850205 -0.114546195 0.009807234
0000d0 25 d2 9f 3d 7e 4f 00 3d 39 54 3e 3d f3 52 9b bd
       0.07803754 0.03132581 0.04646704 -0.07584181
0000e0 a8 67 82 bd 56 5e 08 3e c7 e3 a6 3c 3f 63 c4 3c
       -0.06367427 0.13317236 0.020372285 0.023973105
0000f0 0a a3 10 bd 98 6d 4c 3d e6 47 48 3d 53 9b f7 3d
       -0.035311736 0.049909204 0.048896693 0.120901726
000100 06 57 93 3d f2 5c 92 3d ef d7 41 3d 57 09 39 bd
       0.07194333 0.07146634 0.04732507 -0.045174923
000110 31 72 24 be 33 2d 51 be 05 3d b7 bd aa 63 71 bd
       -0.16059186 -0.20427398 -0.089471854 -0.058932938
000120 9e f1 e8 3d 14 d7 59 3d a4 c0 11 3e ef 8e ac 3c
       0.1137421 0.05318363 0.14233643 0.02106425
000130 ea d5 0e bc 17 8a 31 3e b4 83 1e bd 8a 8a fc bd
       -0.008717993 0.17337833 -0.03869982 -0.12331112
000140 20 8f e6 3d 97 69 23 be 7d 61 d0 bd 20 1e 89 bd
       0.11257768 -0.15958248 -0.101748444 -0.06695199
000150 f3 df eb bc 6d b7 d8 bd db e6 bb 3d 12 a3 c1 3c
       -0.02879331 -0.10581861 0.091748916 0.023637328
000160 ee 17 58 bd 25 c1 a0 bd 2f 1a 03 bd c8 84 d2 3c
       -0.052757196 -0.078493394 -0.032007392 0.02569808
000170 ff d3 72 bd 18 8d b5 3d a4 58 cb 3c 6e c5 1a 3e
       -0.059284206 0.08864802 0.02482254 0.15114376
000180 8c e5 07 3e 38 b5 9b 3d ac fa bb 3d d1 69 4c 3e
       0.13271159 0.07602924 0.09178671 0.19962241
000190 64 ba ee bd 89 ea 8e 3d dc 70 22 bd fa dd 17 be
       -0.11656645 0.06978328 -0.039658412 -0.14830771
0001a0 40 33 22 bb 6a 77 d7 3d 97 5a 9a bd ba e5 02 3d
       -0.0024749786 0.10520823 -0.0753681 0.031957366
0001b0 a2 86 0e 3c c3 d1 19 bd 95 07 bd 3d d4 1f 42 3d
       0.008699091 -0.03755356 0.09229962 0.047393635
0001c0 57 6f 91 bd 3d 4c f2 bd 8e 16 83 3c f1 13 04 3e
       -0.071013145 -0.118309475 0.016001966 0.12898232
0001d0 0b f8 a9 3c 32 69 21 3e 6d 40 b0 bd 76 3b 8d bd
       0.020748159 0.15762785 -0.08606038 -0.06896107
0001e0 a0 22 97 3d 77 e3 6f 3d d3 60 55 3d 49 47 8a bd
       0.07379651 0.058566537 0.052094292 -0.06751878
0001f0 dd 86 e2 3d e6 5f 5c bd 92 f1 a0 bd 37 a5 07 3d
       0.110608794 -0.053802393 -0.07858576 0.033116546
000200 24 a1 cd 3c a2 22 13 be 80 ac 5a 37 b8 4f 33 3d
       0.025101252 -0.1436868 1.3033976e-05 0.043777198
000210 97 01 b6 bd 5c e9 ca 3c 8a 51 15 3b 11 6f 0d 3d
       -0.08887022 0.024769478 0.0022784197 0.03452975
000220 ee 84 a6 3d ec ff 9d 3d 69 c7 48 bd 3f 87 1e 3d
       0.08130823 0.07714829 -0.049018297 0.0387032
000230 c7 e9 47 3d 8b 73 13 bc c4 c7 b7 bd e8 48 ad 3b
       0.04880693 -0.008999716 -0.08973649 0.005288232
000240 f0 4e 3f 3d 3e 65 00 3d 94 83 b4 bb 81 1c 98 3c
       0.04670614 0.031346552 -0.0055088494 0.01856828
000250 b2 cb 66 bb 2a 2a bc bc 26 6e 62 3d c3 a4 81 bd
       -0.0035216627 -0.022969324 0.055280827 -0.06330254
000260 a8 cd d6 3d 10 a7 c7 bd e5 d4 60 3d 61 00 ce 3d
       0.104884446 -0.097486615 0.054890532 0.10058666
000270 13 7a f0 3d 08 d7 87 3d 78 37 c3 bd 0f d9 4f 3d
       0.11742034 0.06632811 -0.09532064 0.050744113
000280 58 10 b5 bd 24 e0 93 bb e2 72 36 3c 9a 63 50 bd
       -0.08841008 -0.0045128036 0.011135789 -0.050876237
000290 89 8b 6f 3c 0f fe 9b 3d 72 94 85 3d 8c e2 15 3e
       0.01462067 0.07616817 0.06522454 0.14637202
0002a0 9d 69 a7 bd e2 ad fc 3c 8e c5 13 bd a9 3d a2 bd
       -0.08174441 0.030844633 -0.036077075 -0.07921917
0002b0 ab 0e 7f 3d 39 5b bb bd cc 89 2c bd 37 e0 0f 3e
       0.062269848 -0.09148259 -0.0421236 0.14050375
0002c0 34 43 03 be 07 22 d6 3d c4 ae be bd 24 3a ee bd
       -0.12818605 0.10455709 -0.09310678 -0.11632183
0002d0 9f 25 87 bd 4e 84 8f 3d 38 25 fd bd b1 be b4 39
       -0.065989725 0.07007657 -0.123606145 0.00034474352
0002e0 2f 32 e7 bd c2 5b 8b bd 6b 91 84 bd 49 f7 c7 3c
       -0.11288869 -0.06804611 -0.06473049 0.024409907
0002f0 42 9e 9a bd af dc 5a 3d c0 7e f9 bc 04 2e a8 bd
       -0.075497165 0.053433117 -0.030455947 -0.08211902
000300 a6 ad 3c bd 35 07 9c 3d 8e 22 a7 3d e6 d6 b6 bc
       -0.04606404 0.07618562 0.08160888 -0.022319268
000310 01 be bd 3b e9 33 0e bb aa fc 84 3d fb 75 0b 3e
       0.0057904725 -0.0021698421 0.06493504 0.13619225
000320 95 d7 1d bd 19 e6 d0 bc 56 1b e7 ba 73 55 e4 3d
       -0.038535673 -0.025500344 -0.0017632048 0.11149111
000330 2d 9d dd bd cd c1 57 bd b2 82 1d 3e 52 45 29 3d
       -0.108209945 -0.052675057 0.15381888 0.041325875
000340 d2 49 34 bd 43 b6 f4 bd d2 33 a3 3d ac a0 0c 3d
       -0.044015713 -0.11948826 0.07968868 0.034332916
000350 17 cc 2b 3d 33 5c f8 3d cb da a0 bd 13 be 8f 3c
       0.041942682 0.121269606 -0.078542314 0.01754669
000360 51 ad f7 bd 27 6e 01 bd 37 e4 f8 bd 78 c5 8f 3d
       -0.12093604 -0.03159919 -0.121529035 0.07020086
000370 25 36 b8 3d bb 8f c1 bb ec e6 92 bc f2 a8 cd 3d
       0.08994702 -0.0059070266 -0.017932378 0.100419894
000380 1e b8 13 3d f8 cd d6 3d f1 4d f4 3d cf 0b b9 bd
       0.03606426 0.10488504 0.11928929 -0.090354554
000390 df b7 bb 3d 40 68 08 bd a4 0d 22 be 43 d0 0b 3d
       0.0916593 -0.033302546 -0.15825516 0.03413416
0003a0 15 62 41 3c e4 ea b9 3d 53 e8 d8 bd 88 26 93 bc
       0.01180317 0.09078005 -0.10591187 -0.01796271
0003b0 54 a9 16 bd b9 4e 15 3d 62 8e a5 bd 04 1b e1 bd
       -0.036782578 0.03645203 -0.08083798 -0.10991481
0003c0 c1 b8 12 3d 05 b7 b7 bc 8f d6 e7 3c 12 ab 1a bc
       0.035820726 -0.022426138 0.028300552 -0.0094402
0003d0 c2 8f 5f bd 7c de 80 bd 31 71 ce 3d 94 4f 02 3d
       -0.054580458 -0.062924355 0.10080183 0.031814173
0003e0 4a b4 0f 3d 09 3c c2 3b 7f 0a ad 3d 93 73 38 3d
       0.035084046 0.005927567 0.084492676 0.045032095
0003f0 a7 f8 13 bd 1a 18 81 bc 78 f3 c7 bd 5c 77 37 bd
       -0.036125805 -0.015758563 -0.09763235 -0.044791564

transformer.layers.0.linear2.bias f4 [32]
000000 a6 c6 24 3d 11 f9 79 bd e2 76 18 3c 3f ec d7 bd
       0.04022851 -0.061028544 0.009305688 -0.10543107
000010 8f 93 e5 bd ff 7e 9f bc a9 96 c0 3d 6b f6 f6 ba
       -0.11209785 -0.019469736 0.09403736 -0.0018841749
000020 5a 76 55 bc 9a c7 85 bd fa f9 95 3d 92 3e 02 3e
       -0.0130287055 -0.065322116 0.0732307 0.12719181
000030 50 21 49 bb 34 47 cb 3d d0 fa 34 3d 85 80 f3 bd
       -0.0030690022 0.0992569 0.044184506 -0.118897475
000040 45 aa 64 3c 87 2f 30 3d 2e 42 16 bd 6d 77 08 be
       0.013956611 0.043014076 -0.036684208 -0.13326807
000050 34 b9 cc bd 29 f9 41 bb 7f e4 cc bd 78 6a 13 bd
       -0.09996262 -0.0029597974 -0.1000452 -0.03599021
000060 3b d5 ba 3d 63 ae aa 3c 5f da 49 3d 79 c6 4c bc
       0.09122702 0.020835107 0.04928052 -0.012498491
000070 db 9e 98 bd 22 97 01 bd 2e 85 ca bc 03 e0 18 bd
       -0.07452174 -0.031638272 -0.024721708 -0.03732301

transformer.layers.0.norm1.weight f4 [32]
000000 f1 81 84 3f 50 5d 81 3f e2 a5 80 3f bf 83 86 3f
       1.0352155 1.0106602 1.0050623 1.0508956
000010 47 68 82 3f d2 11 78 3f b7 e2 73 3f e5 bc 76 3f
       1.0188073 0.9690219 0.95267814 0.9638198
000020 03 e9 7c 3f 94 ff 80 3f 12 af 77 3f c3 d3 7d 3f
       0.9879305 1.0077996 0.9675151 0.9915125
000030 03 8c 6a 3f af 0b 82 3f 8d 43 8a 3f 4a 7e 6c 3f
       0.9161989 1.0159816 1.0801865 0.923802
000040 d3 42 80 3f 76 cf 86 3f 99 cb 82 3f d8 f4 84 3f
       1.0020393 1.0532062 1.0218383 1.038722
000050 ea 59 7d 3f b7 b4 83 3f c3 d3 7f 3f 3f 4c 84 3f
       0.9896532 1.0289525 0.999325 1.0335768
000060 dd 49 81 3f d3 75 75 3f 95 e0 78 3f 47 73 7f 3f
       1.0100666 0.9588291 0.97217685 0.99785274
000070 75 7a 6b 3f a8 e4 81 3f 81 3d 83 3f d8 7e 83 3f
       0.9198373 1.0147905 1.0253145 1.0273085

transformer.layers.0.norm1.bias f4 [32]
000000 39 b7 55 3c 84 1c 82 ba 86 28 2f 3c 86 a9 ab 3a
       0.013044172 -0.0009926711 0.010690814 0.0013096787
000010 8e a1 d5 bb b1 bc 5b 3c fa 20 39 3b a1 6a d0 3b
       -0.006519503 0.013411687 0.0028248415 0.0063603674
000020 1c b7 85 bc f1 a7 28 bc 9e a5 65 3c be 70 1d 3c
       -0.016322665 -0.010293947 0.014016537 0.009609399
000030 50 b5 76 bb fe c9 e6 3b f7 a8 dd 3b 56 12 8a bc
       -0.0037644692 0.0070431223 0.006764527 -0.016854446
000040 d4 cc 0c bb 8b 7b 27 3c 79 8d 38 bc cd 72 c7 b9
       -0.0021484392 0.010222326 -0.011264198 -0.0003804177
000050 e1 84 43 3c dc 76 2f bc b8 79 0b bc 59 06 77 bc
       0.011933536 -0.010709491 -0.008512907 -0.015077197
000060 e5 65 ec bc 8d 63 01 bd 01 1c 8f 3c 76 ab 0e bb
       -0.02885718 -0.03158908 0.017469408 -0.002176968
000070 f2 19 ad 3c 46 5b 48 bc 3b c0 11 3d 2e f6 e3 3b
       0.021130536 -0.0122287925 0.035583716 0.006956837

transformer.layers.0.norm2.weight f4 [32]
000000 ac 73 7d 3f 46 cc 84 3f d4 41 81 3f 5b c9 88 3f
       0.99004626 1.0374839 1.0098214 1.0686449
000010 2a 3b 81 3f 92 2a 80 3f 70 d0 82 3f a5 76 82 3f
       1.009618 1.0012991 1.021986 1.0192457
000020 9a 97 81 3f ce 48 86 3f b2 b9 80 3f 51 64 85 3f
       1.012439 1.0490968 1.005667 1.0421239
000030 a8 cf 86 3f f6 e7 84 3f aa bc 87 3f f3 85 7a 3f
       1.0532122 1.0383289 1.0604451 0.9786064
000040 55 71 88 3f 60 7f 85 3f 2f 65 83 3f 48 72 81 3f
       1.0659586 1.0429497 1.0265254 1.0113001
000050 dd 57 84 3f fd 55 88 3f 91 c7 85 3f ed b2 82 3f
       1.0339314 1.0651242 1.0451528 1.0210854
000060 e3 14 7f 3f 66 45 82 3f 53 5a 86 3f 52 bf 81 3f
       0.99641246 1.0177429 1.0496315 1.0136511
000070 f6 5c 78 3f 9b 8e 84 3f 2a d1 89 3f 3a cd 86 3f
       0.9701685 1.035602 1.0766957 1.053138
